models/100EpochsTrainedTwoLayerGraphSage.pt (torch, 2460 bytes, 4 tensors)

encoder.lin1.weight f4 [16, 1]
0	0x3ebf6b7c	0.37386692
1	0xbfe3bb6d	-1.7791573
2	0xbfc5a57e	-1.5441129
3	0xbdaca2e0	-0.084295034
4	0xbf0967ac	-0.53673816
5	0x3f0c03d8	0.54693365
6	0xbddf7ee0	-0.10912871
7	0xbfc0c581	-1.5060273
8	0xbfa86942	-1.3157122
9	0xbf6eddd0	-0.9330721
10	0x3db2b8f0	0.0872668
11	0x3ea3ee70	0.3201785
12	0xbf37b424	-0.7175925
13	0x3f78866c	0.9708011
14	0xbe945a4c	-0.2897514
15	0xbeb1c1b4	-0.34718096

encoder.lin1.bias f4 [16]
0	0xbeb4d74c	-0.35320508
1	0x3e90bac2	0.28267485
2	0x3f0c906a	0.5490786
3	0xbc152400	-0.009102821
4	0x3e4c5d2f	0.19957422
5	0x3f5345b8	0.8252826
6	0xbf4e28b0	-0.80530834
7	0x3eef94ea	0.467933
8	0x3e4d1ce8	0.20030558
9	0xbe8473a0	-0.25869465
10	0xbf3b15a4	-0.73079896
11	0xbf0573ee	-0.5213002
12	0xbf2e0cda	-0.6798836
13	0xbed13f44	-0.4086858
14	0xbe8d0018	-0.27539134
15	0xbd31d6e0	-0.04341781

encoder.lin2.weight f4 [1, 16]
0	0xbde7a424	-0.11310604
1	0xbf3fd570	-0.74935055
2	0xbdaac838	-0.0833897
3	0x3da4bc60	0.08043742
4	0xbdf600ab	-0.12011846
5	0x3e787133	0.24261932
6	0xbe42a9e4	-0.1901012
7	0xbebb0fd8	-0.36535525
8	0xbe1b4b5c	-0.15165466
9	0xbdd18168	-0.102297604
10	0xbe5803ce	-0.21095201
11	0x3e5f68b6	0.21817288
12	0x3e68479a	0.22683564
13	0x3e14b282	0.1452122
14	0xbe00e0e4	-0.12585789
15	0xbc94b660	-0.01815337

encoder.graphSage.lin_l.weight f4 [2, 1]
0	0xbf0b2d41	-0.54365927
1	0xbf7add48	-0.979939
