models/TwoLayerGraphSage.pt (torch, 2396 bytes, 4 tensors)

encoder.lin1.weight f4 [16, 1]
0.37386692 -0.9879192 -0.9707631 -0.084295034 0.22627985 -0.10509956 -0.10912871 -0.7079537
-0.58911335 -0.9330721 0.0872668 0.3201785 -0.7175925 0.9708011 -0.2897514 -0.34718096
00000000: 7c6b bf3e 46e8 7cbf ee83 78bf e0a2 acbd
00000010: e8b5 673e 703e d7bd e07e dfbd 743c 35bf
00000020: 22d0 16bf d0dd 6ebf f0b8 b23d 70ee a33e
00000030: 24b4 37bf 6c86 783f 4c5a 94be b4c1 b1be

encoder.lin1.bias f4 [16]
-0.35320508 0.12305796 0.7061095 -0.009102821 0.2476635 0.83703876 -0.80530834 0.51346624
0.3834771 -0.25869465 -0.73079896 -0.5213002 -0.6798836 -0.4086858 -0.27539134 -0.04341781
00000000: 4cd7 b4be d005 fc3d 98c3 343f 0024 15bc
00000010: 809b 7d3e 2c48 563f b028 4ebf 8672 033f
00000020: 1c57 c43e a073 84be a415 3bbf ee73 05bf
00000030: da0c 2ebf 443f d1be 1800 8dbe e0d6 31bd

encoder.lin2.weight f4 [1, 16]
-0.11310604 -0.07354295 0.056854606 0.08043742 -0.09959829 0.2235856 -0.1901012 -0.22460195
0.056839734 -0.102297604 -0.21095201 0.21817288 0.22683564 0.1452122 -0.12585789 -0.01815337
00000000: 24a4 e7bd b09d 96bd 60e0 683d 60bc a43d
00000010: 30fa cbbd a0f3 643e e4a9 42be 0efe 65be
00000020: c8d0 683d 6881 d1bd ce03 58be b668 5f3e
00000030: 9a47 683e 82b2 143e e4e0 00be 60b6 94bc

encoder.graphSage.lin_l.weight f4 [2, 1]
-0.41300392 -0.842571
00000000: 4075 d3be bcb2 57bf
